All good, switching to GPUs.
----------------------------------------------------------------
        Layer (type)               Output Shape         Param #
================================================================
            Conv2d-1          [-1, 8, 288, 384]             224
          Softplus-2          [-1, 8, 288, 384]               0
         AvgPool2d-3          [-1, 8, 144, 192]               0
            Conv2d-4         [-1, 16, 144, 192]           1,168
          Softplus-5         [-1, 16, 144, 192]               0
         AvgPool2d-6           [-1, 16, 72, 96]               0
            Conv2d-7            [-1, 1, 74, 98]              16
================================================================
Total params: 1,408
Trainable params: 1,408
Non-trainable params: 0
----------------------------------------------------------------
Input size (MB): 1.27
Forward/backward pass size (MB): 22.84
Params size (MB): 0.01
Estimated Total Size (MB): 24.11
----------------------------------------------------------------
Outer train iteration: 1 
…
